app/src/main/assets/cardiohealth.tflite (tflite, 2612 bytes, 6 tensors)

sequential_2/dense_8/BiasAdd/ReadVariableOp f4 [2]
-0.13295206 -0.29886457
00000000: 9624 08be c704 99be

sequential_2/dense_7/BiasAdd/ReadVariableOp f4 [5]
0.003858315 0.0 -0.042230204 0.032285385 -0.01217475
00000000: c9db 7c3b 0000 0000 94f9 2cbd ae3d 043d
00000010: 9a78 47bc

sequential_2/dense_6/BiasAdd/ReadVariableOp f4 [8]
0.02419525 -0.03475691 0.0 0.0 0.0 -0.012824719 0.0 -0.0090780305
00000000: 1e35 c63c 435d 0ebd 0000 0000 0000 0000
00000010: 0000 0000 c51e 52bc 0000 0000 05bc 14bc

sequential_2/dense_6/MatMul f4 [8, 8]
-0.0020279344 0.008094218 -0.57891 0.07523599 -1.3380501 -0.79392976 -0.21087614 -0.8296825
-0.029086152 -0.046703942 -0.14219166 0.06684492 -0.02799195 -0.11753362 0.03691973 -0.13284421
-0.014523598 -0.09134414 -0.0014311069 -0.002006035 -0.05879366 -0.05532176 -0.028544694 -0.06518464
-0.0040997514 -0.04558981 -0.04810111 -0.0690358 -0.05005598 0.016016928 -0.0108732935 0.0066390894
-0.019094342 -0.07220459 0.06555296 0.012250471 -0.028055608 -0.022561897 0.018295951 0.02055998
0.008610052 -0.051560793 -0.19232206 0.03977541 0.25071603 0.18163459 0.16511564 -0.04192974
-0.05716843 0.002832586 -0.026677802 -0.0038134963 0.037193567 0.11176657 0.05325027 0.0004852526
0.09164042 0.057068232 0.55477893 -0.020222455 1.2168444 0.60891706 0.1634431 0.790678
00000000: 18e7 04bb 9c9d 043c 7233 14bf 5415 9a3d
00000010: 3a45 abbf fb3e 4bbf eaef 57be 1366 54bf
00000020: 1546 eebc a24c 3fbd b19a 11be fde5 883d
00000030: 604f e5bc 77b5 f0bd 2539 173d 5008 08be
00000040: 63f4 6dbc a312 bbbd fb93 bbba af77 03bb
00000050: 9fd1 70bd 1299 62bd 90d6 e9bc 867f 85bd
00000060: 3557 86bb 61bc 3abd ab05 45bd a462 8dbd
00000070: 8007 4dbd ef35 833c e625 32bc b88c d93b
00000080: bd6b 9cbc 00e0 93bd a140 863d 33b6 483c
00000090: e0d4 e5bc bad3 b8bc 64e1 953c 676d a83c
000000a0: 2d11 0d3c 6931 53bd 13f0 44be 8aeb 223d
000000b0: da5d 803e 6bfe 393e 1314 293e 85be 2bbd
000000c0: 7229 6abd e8a2 393b 688b dabc daeb 79bb
000000d0: 4858 183d dfe5 e43d f51c 5a3d 8069 fe39
000000e0: f9ad bb3d 61c0 693d fe05 0e3f 90a9 a5bc
000000f0: 8fc1 9b3f fde1 1b3f a15d 273e e069 4a3f

sequential_2/dense_7/MatMul f4 [5, 8]
0.3522764 0.022291536 0.020499734 -0.118708335 0.033022866 0.037805874 -0.018650113 -0.020876518
-0.043965235 -0.03912635 0.10037624 0.03079336 -0.061708607 0.03308354 0.0303279 -0.10447693
-0.06368155 -0.011619878 0.038484823 0.06514938 0.08045348 -0.078017086 0.049299374 0.00073654356
-0.35058847 0.048583314 0.035466682 0.0017932057 -0.03096146 0.025058199 0.06794407 0.16207671
0.009861702 -0.009895101 0.032833986 0.013862887 0.051932286 -0.018254275 0.013250536 -0.028147481
00000000: 935d b43e bd9c b63c 0fef a73c 5b1d f3bd
00000010: fc42 073d 55da 1a3d 1fc8 98bc 3b05 abbc
00000020: e414 34bd f442 20bd 0f92 cd3d 5b42 fc3c
00000030: 2ac2 7cbd 9b82 073d 3772 f83c 00f8 d5bd
00000040: 796b 82bd 4d61 3ebc 43a2 1d3d 0a6d 853d
00000050: cbc4 a43d 6cc7 9fbd 24ee 493d 9a14 413a
00000060: 5580 b3be 4cff 463d 8345 113d 000a eb3a
00000070: e3a2 fdbc da46 cd3c 4326 8b3d 70f7 253e
00000080: fa92 213c 101f 22bc ee7c 063d 2a21 633c
00000090: f3b6 543d fd89 95bc c718 593c 8c95 e6bc

sequential_2/dense_8/MatMul f4 [2, 5]
0.68668425 -0.21349335 0.75645393 -0.5865348 -0.15864843 -0.5615053 0.61654913 0.16323751
0.67690825 0.36984092
00000000: 8aca 2f3f 009e 5abe f7a6 413f 2527 16bf
00000010: bc74 22be d0be 0fbf 2ad6 1d3f bc27 273e
00000020: dc49 2d3f ca5b bd3e
